…
ow(1. - pt_1, gamma) * K.log(pt_1)) - K.mean((1 - alpha) * K.pow(pt_0, gamma) * K.log(1. - pt_0)) return focal_loss_fixed . efficientnetb5_model.compile( optimizer=&#39;adam&#39;, loss = focal_loss(gamma=2., alpha=.25), #loss = tf.keras.losses.BinaryCrossentropy(label_smoothing = 0.1), metrics=[&#39;binary_crossentropy&#39;, &#39;accuracy&#39;] ) efficientnetb5_model.summary() . Model: &#34;sequential&#34; _________________________________________________________________ Layer (type) Output Shape Param # ================================================================= efficientnet-b5 (Model) (None, 32, 32, 2048) 28513520 _________________________________________________________________ global_average_pooling2d (Gl (None, 2048) 0 _________________________________________________________________ dense (Dense) (None, 1024) 2098176 _________________________________________________________________ dropout (Dropout) (None, 1024) 0 _________________________________________________________________ dense_1 (Dense) (None, 512) 524800 _________________________________________________________________ dropout_1 (Dropout) (None, 512) 0 _________________________________________________________________ dense_2 (Dense) (None, 256) 131328 _________________________________________________________________ dropout_2 (Dropout) (None, 256) 0 _________________________________________________________________ dense_3 (Dense) (None, 128) 32896 _________________________________________________________________ dropout_3 (Dropout) (None, 128) 0 _________________________________________________________________ dense_4 (Dense) (None, 1) 129 ================================================================= Total params: 31,300,849 Trainable params: 31,128,113 Non-trainable params: 172,736 _________________________________________________________________ . lrfn = build_lrfn() lr_schedule = tf.keras.callbacks.LearningRateScheduler(lrfn, verbose=1) . #model.load_weights(&#39;../input/melenoma/model_weights.h5&#39;) . history = efficient
…
